android/app/src/main/assets/converted_model3.tflite (tflite, 778804 bytes, 8 tensors)

arith.constant f4 [2, 32]
000000 5e ef 15 3e 71 a8 6d 3e 59 d6 80 3e 09 f0 89 3e
       0.14642093 0.23208787 0.25163534 0.26940945
000010 78 cc 28 3e 15 4f 76 3e e7 6e bf be ae f7 dd be
       0.16484249 0.24053605 -0.373893 -0.43353027
000020 e1 39 29 3e 44 62 98 be 8e 2b 17 3e 7f 95 56 3e
       0.16525985 -0.2976247 0.14762709 0.20955466
000030 d3 82 75 3e 70 ee 8c be 36 15 f8 be b0 af 92 3e
       0.23975687 -0.27525663 -0.48453683 0.28649664
000040 23 70 98 be 5b db 50 3e 2d c4 8c 3e 47 26 cc 3e
       -0.29773054 0.20396177 0.2749342 0.39872953
000050 0d 1d 2a 3e d3 87 8d 3e a7 e2 15 bf 09 62 0e bf
       0.16612644 0.27642688 -0.5854897 -0.5561834
000060 ec d4 fe be 45 8a 03 3e a3 f6 d5 3e 1d 84 92 3e
       -0.49771821 0.12845714 0.4178973 0.2861642
000070 c5 04 d5 be bb 4b 01 3e 43 3c 5c 3e 8a fb d6 be
       -0.416052 0.12626545 0.21507363 -0.41988784
000080 16 0f f3 bd 97 c8 3d be c6 d0 76 be 8e d8 86 be
       -0.11868112 -0.1853355 -0.24103078 -0.26337093
000090 e2 a5 19 be 79 14 7b be 2d 2e e6 3e bd 5d 1b 3f
       -0.15004686 -0.24519528 0.44957104 0.6068991
0000a0 d6 42 4e be 55 72 93 3e 04 94 ba be 2a 39 c1 be
       -0.20142683 0.28798166 -0.36441052 -0.37738925
0000b0 1e 00 26 be 4d d3 a1 3e 37 d8 01 3f 7c b0 9a be
       -0.16210982 0.31606522 0.5072054 -0.30212772
0000c0 77 aa b4 3e ab f2 12 be 9f b7 29 3e 51 d6 2d be
       0.35286304 -0.14350383 0.16573952 -0.16976286
0000d0 0e 65 28 be ee 2b 83 be 1d cd cf 3e 3c c6 e6 3e
       -0.164448 -0.25619453 0.40586177 0.45073116
0000e0 d7 67 d6 3e 7b fb 07 be 34 02 2f bc 11 bf c7 bd
       0.418761 -0.13279526 -0.010681678 -0.0975324
0000f0 28 4d f8 3e da 93 9d be 92 ad 12 be f8 aa c7 3e
       0.48496366 -0.30776864 -0.14324024 0.38997626

arith.constant1 f4 [32, 64]
000000 f2 47 ef 3d 02 83 3d 3e a2 a6 44 3e 47 bf 27 3d
       0.11683644 0.18507007 0.1920419 0.0409539
000010 a4 a4 da 3d 86 2d 1c 3e 53 63 3b 3e 66 d0 d0 3b
       0.10675934 0.15251741 0.18299608 0.0063724993
000020 9c 7a 7e bc 3f a5 c0 3d 2f f5 6b 3e 24 c1 1e 3c
       -0.015532162 0.09406518 0.23042749 0.009689603
000030 0d c3 16 bb d7 ba ab 3e 47 87 6f 3c 22 7c 7d be
       -0.0023004443 0.33540985 0.014619655 -0.24754384
000040 7a fc 7b 3e 41 46 8a bd 1a 08 a4 3e a1 de 7c bd
       0.24608031 -0.06751681 0.3203743 -0.061735753
000050 d3 71 34 3d 09 c6 0b be cd fc eb 3c df 1a 8e ba
       0.044053864 -0.13649763 0.028807068 -0.0010841748
000060 7a 87 36 bd 20 05 8d 3e 3f d1 c6 bd f9 59 d6 3e
       -0.044562794 0.27542973 -0.09707879 0.4186552
000070 21 b1 91 3d 4c 99 70 3e ad 77 75 3e 2c 4e 9b 3e
       0.07113863 0.23495978 0.23971434 0.30333078
000080 b8 31 51 bc c5 9a 50 3e 56 a9 8e bc bb ac 77 3e
       -0.0127682015 0.2037154 -0.01741473 0.24186985
000090 86 55 f7 bd b3 08 7b 3d 0c 0b a9 3b 0e 6e 0a bd
       -0.12076859 0.061287593 0.0051587876 -0.033796363
0000a0 ff c8 92 3d 04 47 2a be 26 cb ee 3b 04 36 9e 3e
       0.07167243 -0.16628653 0.007287401 0.30900586
0000b0 4e 9a ca bd 1a 17 b8 39 1d 03 94 3e da 00 52 3e
       -0.098927125 0.00035112427 0.28908625 0.20508137
0000c0 fc bc 8f 3c 85 f8 16 3e 86 7b 6f 3c 25 b8 0d bc
       0.01754617 0.1474324 0.014616853 -0.0086498605
0000d0 24 49 68 3e 92 2d 8e 3d 2f 8d 12 be 3b 69 a6 3d
       0.22684151 0.069422856 -0.1431167 0.0812554
0000e0 57 ac 53 3e bd 46 d4 bd e7 86 fb 3d 54 fa 72 be
       0.20671211 -0.10365055 0.1228159 -0.23728305
0000f0 bc 0e 78 be ec b7 43 3e e8 54 d1 3d bf f9 8d bd
       -0.2422437 0.1911313 0.10221273 -0.06932401
000100 2a ef ad bd 89 f9 a4 3d 3a d7 ef 3b c6 8e 9a 3c
       -0.084928825 0.080554076 0.007319358 0.018866908
000110 37 aa e7 bc 31 f2 41 3d 76 7c 5e 3e ee 7f b5 bd
       -0.028279407 0.047350112 0.21727166 -0.08862291
000120 b5 96 05 be 75 d9 40 bd 7e b5 20 3e 89 4e 91 3e
       -0.13045771 -0.047082383 0.15694234 0.2838023
000130 64 4b 0e bd 0f 30 49 3e 12 dd 80 3c fa 24 82 bc
       -0.034739867 0.19647239 0.015730415 -0.015886772
000140 f9 d3 47 bd 98 50 cc 3d 6b 2f 90 3e df be 0b 3e
       -0.048786137 0.099763095 0.28161177 0.1364703
000150 c6 7a 65 3e df 8a ad bd 09 14 eb 3c d6 97 35 bb
       0.22410116 -0.08473753 0.028696077 -0.002770891
000160 8f 80 7b be ef 9f b9 3d 85 78 4f bd ed d6 da 3e
       -0.2456076 0.09063708 -0.050652046 0.427421
000170 a9 f3 d5 3d 1b 26 14 3d 6d db 6b 3e 1f ab 82 3e
       0.10446865 0.036169153 0.23032923 0.2552118
000180 7d 70 9b 3d a9 bc 71 3e c2 18 3e 3e 0b 1f 04 3e
       0.07589815 0.23607124 0.18564132 0.12902467
000190 f8 c9 f3 bc e3 bd 66 be 32 a7 93 3e 13 1c a1 3e
       -0.029759392 -0.22533374 0.28838497 0.3146673
0001a0 eb 2e 52 3d f9 39 27 bd b3 eb 59 3e 32 7b 34 3e
       0.051314276 -0.04082677 0.21281318 0.1762512
0001b0 4a 9a 7d bd 80 e6 ad 3e da ef dc 3b fc f7 d7 3d
       -0.06191472 0.3396492 0.0067424597 0.10545346
0001c0 57 5c 18 3e 62 83 7f 3e 4f bb bf be df 79 df 3e
       0.14878975 0.24952462 -0.37447593 0.43647668
0001d0 e2 a4 ac 3c e2 ef b9 3e 4d 18 32 3e 45 68 c8 ba
       0.021074716 0.3631583 0.17392083 -0.0015289864
0001e0 c4 8a aa 3e e4 f1 96 bd f8 f2 3f 3e 0b 72 e8 bd
       0.33308995 -0.07370356 0.18745029 -0.11349877
0001f0 e3 65 64 3e 18 24 4b 3e af fc 1b 3d 5a db 41 3e
       0.22304492 0.19837987 0.038082775 0.18931332
000200 46 cd bd 3d 58 7d 6d 3e 7e b1 cc bd 32 8a 30 be
       0.092676684 0.23192346 -0.099947914 -0.17240217
000210 16 e2 01 be 58 7f 59 3e ff 25 7c 3c 36 a5 41 3e
       -0.12683901 0.21239984 0.015389918 0.18910679
000220 25 d6 22 3d f7 cd 95 bd 97 ff 9b 3e a8 c9 01 3f
       0.039755005 -0.07314675 0.30468437 0.5069833
000230 ff 09 84 3e 24 c4 d6 3c 3c 3f 08 3e 37 2d 13 3d
       0.25788876 0.026216574 0.13305372 0.035931792
000240 67 b2 56 bd 5b 06 ef 3d a5 74 a2 3e 5e 1d e5 bc
       -0.05241623 0.11671134 0.31729618 -0.027968105
000250 51 01 39 3e 65 b9 80 bc 54 cb 88 3d b3 e3 29 be
       0.18066908 -0.015713403 0.06679407 -0.16590767
000260 1b e2 29 bd 56 6f b2 3e 92 72 25 3e ba 56 b4 3e
       -0.041475397 0.34850568 0.16156986 0.35222417
000270 81 07 c5 3d de 47 44 bd 20 8a 43 3e b5 65 49 3e
       0.09620572 -0.0479201 0.1909566 0.19667704
000280 58 a6 45 3e 1a ad 83 3e 07 09 72 3e 13 15 2a 3e
       0.19301736 0.25718004 0.23636256 0.16609602
000290 41 a5 7f be eb 36 08 3d 90 3c 2d bd 65 09 38 3e
       -0.24965383 0.0332555 -0.042294085 0.17972334
0002a0 6e ca 3a bd 7e 67 2c 3d 00 74 32 3e ba 25 cc bd
       -0.04560321 0.042090885 0.17427063 -0.09968133
0002b0 39 e5 2a be f0 1f 6f 3e 8b c5 72 3e 8a 88 11 3e
       -0.16689004 0.23352027 0.23708169 0.14212242
0002c0 0a df 85 3d f3 14 49 3e f7 31 b5 bd f8 b8 85 bd
       0.06536682 0.19636898 -0.08847421 -0.065294206
0002d0 db 0a 65 3e 77 e7 c3 3c 32 87 8b 3e 58 f3 6f bd
       0.22367422 0.023914082 0.27251583 -0.05858168
0002e0 48 c1 45 3e 8a ab a5 bd d0 0f 0e 3c 65 10 2d be
       0.19312012 -0.08089359 0.008670762 -0.16900785
0002f0 ed ea 9d 3e 9f cd 36 3e 25 61 a8 3c 24 00 9d 3d
       0.30843297 0.17851876 0.020554135 0.076660424
000300 f6 89 02 be 2e 7f 86 3d 2a 61 16 3e 72 36 4f 3e
       -0.1274794 0.06567226 0.14685503 0.20235613
000310 b2 96 79 bd 02 1a e7 3d 1b e1 a7 3c 68 6c db bd
       -0.06093473 0.112842575 0.02049308 -0.10714036
000320 2c 30 a5 3e 3e 29 7d 3e f5 2b a7 3e ff e7 9e 3d
       0.32263315 0.24722764 0.32650724 0.077590935
000330 4f 44 66 3e 3c 26 02 3e 02 06 02 3e 85 74 af bd
       0.22486995 0.12709898 0.12697604 -0.08567146
000340 73 68 b2 ba d1 fd b0 3d 6b f3 9a 3e 29 3e 28 3e
       -0.001361145 0.08642162 0.30263838 0.16429962
000350 70 36 a5 3d 2d 9b bf bd 2d 52 87 3e 93 a9 01 be
       0.08067024 -0.09355769 0.26429883 -0.12662344
000360 4d 60 13 be 04 70 ba 3e 70 73 bf bd ae ea 66 3e
       -0.14392205 0.36413586 -0.0934819 0.2255046
000370 00 65 d2 3e 55 df f0 bc 93 d7 7e 3d 13 2b a3 3e
       0.41092682 -0.029403368 0.062217306 0.318688
000380 d2 ee 2e 3e 2a 6e 9b 3e af 10 9c bc d7 8a df bd
       0.1708329 0.30357486 -0.019050924 -0.109151535
000390 b8 ba 10 3e 51 94 b6 bd 0a 24 4a 3e 9f 32 41 3e
       0.14133728 -0.08915008 0.1974031 0.18866967
0003a0 2c a5 9a bc b6 4c 3b be 42 c1 12 3d 94 f8 8c bc
       -0.018877588 -0.18290982 0.035828836 -0.017208375
0003b0 9d 5a 15 3e 43 5f b7 bd cf 79 5d 3e a2 61 d9 bd
       0.14585347 -0.089537166 0.21628498 -0.10614325
0003c0 a9 36 29 3e 3c 02 90 bd 47 a3 7f 3e 65 71 45 bd
       0.16524757 -0.07031676 0.24964629 -0.048203845
0003d0 b6 61 88 3e 71 2b f4 3d d9 5b fa 3c 09 ca 91 bd
       0.26637048 0.11922348 0.030561375 -0.07118613
0003e0 08 97 19 3e 7f bd 33 be 9f 97 1c 3d f1 4c 83 3c
       0.1499902 -0.17552756 0.038230535 0.0160279
0003f0 a2 7f b0 3d e8 46 32 3d 6e 38 24 3e 61 ce a0 3e
       0.08618094 0.043524653 0.16037151 0.31407455

arith.constant2 f4 [64, 128]
000000 90 92 22 3e 9d 81 35 be 05 0f 0f 3d 1a 8e ce 3d
       0.15876222 -0.17725225 0.034926433 0.100856975
000010 8b 97 0a be ea 1f e7 3d 75 61 c0 bd 38 77 82 3d
       -0.13534372 0.11285384 -0.093935885 0.063703954
000020 54 17 24 3d a9 86 53 be 00 17 cb bd 01 d3 95 bd
       0.04006131 -0.20656838 -0.09916496 -0.073156364
000030 38 97 cc bd 7c 38 6c 3d 60 d5 27 be f8 b7 37 bd
       -0.0998978 0.057671055 -0.1638999 -0.04485318
000040 00 13 90 3d eb 45 02 3e a1 07 96 3b 22 45 08 bc
       0.07034874 0.12721984 0.004578546 -0.008317264
000050 81 95 ce bb 3c ef 2b bd d4 db 4a bd af 97 14 3e
       -0.0063044433 -0.0419762 -0.04952605 0.14510988
000060 70 03 db 3d 7d b2 19 3e 15 da 1e 3e ce 9c 0a be
       0.10694015 0.15009494 0.15512879 -0.13536379
000070 69 3c 4a bd ae bb 6d 3d fc 79 f6 bd b6 1e d8 3d
       -0.049374018 0.058040313 -0.120349854 0.10552733
000080 c4 86 58 bd f2 93 6d 3c 09 de 37 be a4 18 31 bd
       -0.052862898 0.014500605 -0.17955793 -0.04323639
000090 5b d3 29 be fd 65 d5 bd cb c8 0c be 1e b5 d9 3d
       -0.16584532 -0.10419843 -0.13748471 0.106302485
0000a0 31 c0 83 bd 9f e8 2e 3e 28 5b f8 3c 8b 26 d0 bb
       -0.06433142 0.17080925 0.030316904 -0.006352251
0000b0 25 fd 75 bd f0 95 c7 bc 46 c1 e8 3d e5 b6 17 bd
       -0.06005587 -0.024363488 0.11364989 -0.037039656
0000c0 a3 b9 d5 3d f8 f4 47 3d 63 80 11 3e 56 78 68 bd
       0.10435798 0.048817605 0.14209132 -0.056755386
0000d0 3c 05 d6 3d ee 07 03 be 02 d2 fb 3d ab c1 86 3c
       0.10450217 -0.12795994 0.12295915 0.01644977
0000e0 d1 6a 04 3e 60 b0 eb bb 45 76 01 3e 7c 2f b6 bd
       0.12931372 -0.0071926564 0.12642772 -0.08895776
0000f0 68 35 d0 bd cc e9 d7 bd 31 62 27 3e 54 b7 af 3a
       -0.101664364 -0.1054264 0.16346051 0.0013406076
000100 d2 91 56 bd 6e 4f f3 bd 65 ea 11 3c 91 70 15 3e
       -0.05238516 -0.118803844 0.008905982 0.14593722
000110 2c 66 64 3d 34 89 2f bd 67 25 8a bd a7 94 c4 bc
       0.0557615 -0.042855456 -0.06745415 -0.023996664
000120 f0 b2 7b bc 10 3e 94 3d cf 39 15 3e 40 8a 03 bd
       -0.015362486 0.072384 0.14572833 -0.032114267
000130 33 0c 2c 3e 98 d9 a6 3c 6d cd ef 3d 9c 97 2d 3e
       0.16801529 0.020367429 0.11709104 0.16952366
000140 17 dd 5e bb 2d d9 ae bd b7 fa cd bd 32 79 19 be
       -0.0034006292 -0.08537517 -0.10057586 -0.14987639
000150 43 4d bd 3d 5d 5e 5e bc 08 6c 2e bd a7 dd ad bd
       0.09243252 -0.013572303 -0.042583495 -0.084895425
000160 a1 82 cd bd 78 63 c1 bc c2 82 25 3e 23 00 34 be
       -0.10034681 -0.023607 0.16163161 -0.17578177
000170 ab e2 90 bd 97 d3 ff bd 24 e7 70 bd 8a cb bb 3d
       -0.070744835 -0.124915294 -0.058814183 0.09169681
000180 70 59 49 3d 8c 0b fc bd 5c 32 33 be 3a e7 c7 3d
       0.04915756 -0.1230689 -0.1749968 0.097609
000190 1a e7 83 3d 7a a7 a8 bd 56 31 f0 3d ef 0e 35 be
       0.064405635 -0.082350686 0.1172816 -0.17681478
0001a0 83 c0 34 3e 22 ef 18 be cf 4b dc bc 56 e3 28 be
       0.17651562 -0.14934972 -0.026891617 -0.16492972
0001b0 6d ac 2e 3e d8 05 a1 bc d8 63 a1 bb b5 a1 04 3e
       0.17057963 -0.019656107 -0.0049252324 0.12952311
0001c0 60 76 d2 bd 7b 4a 21 3e 92 6b a0 3d 75 be aa bd
       -0.102764845 0.15751068 0.078330174 -0.08337108
0001d0 05 f0 b5 3d 60 00 ad 3d b8 aa d7 bc fb 6a e3 3d
       0.08883671 0.08447337 -0.026326522 0.11104389
0001e0 39 13 db bd ff 7c 6b 3d c3 42 25 be 90 bb 47 3d
       -0.10697026 0.057492252 -0.16138749 0.048762858
0001f0 50 2b 1b 3c ab 9a 4e be ab fb 03 be 91 16 27 be
       0.009470776 -0.20176189 -0.12888972 -0.16317202
000200 11 ca 42 be 08 ab ae 3d f9 7c ca bd d0 17 dc bd
       -0.19022395 0.08528715 -0.09887118 -0.107467294
000210 ed 15 39 bc 75 03 af bd 45 05 18 3e f2 a9 94 3d
       -0.011296731 -0.08545581 0.1484576 0.07258977
000220 dd c7 5c bd 42 1f 50 3d da 5c 59 bd 3b 22 a8 bd
       -0.053901542 0.05081106 -0.053067066 -0.08209654
000230 43 a5 21 be e7 34 2e 3e 29 19 99 bd f0 06 5f 3d
       -0.15785699 0.17012368 -0.07475502 0.054449975
000240 e3 e3 3a 3c f4 bd 6f bd b5 ad a0 3d f2 d0 1d 3c
       0.0114068715 -0.058530763 0.07845632 0.009632336
000250 29 41 2d 3e 96 76 72 bd ef f0 10 3e 71 fe 32 be
       0.16919388 -0.059195124 0.14154409 -0.17479874
000260 1d 89 5f 3d 00 86 a5 3a d2 28 d1 bd da a8 a8 3d
       0.05457412 0.0012628436 -0.10212864 0.08235331
000270 ab 81 2e 3e be 73 40 bd 9e 21 18 be 9c 92 48 bd
       0.17041652 -0.04698538 -0.14856574 -0.048967943
000280 cf bc 19 be 94 6c b7 3d 47 60 76 3c 85 3b e2 3d
       -0.15013431 0.089562565 0.015037603 0.11046509
000290 89 10 af bd f9 42 25 bc 0e 1e eb bd cf 3a 29 3e
       -0.08548076 -0.010086768 -0.11480342 0.1652634
0002a0 97 73 12 be 36 a5 95 bd 0a 66 ae 3d 29 9b 7d bd
       -0.14301907 -0.07306902 0.08515556 -0.06191555
0002b0 45 31 2a 3e 7b 96 f3 bd a9 dd c3 3d 9a 59 c8 bd
       0.16620357 -0.11893936 0.09563763 -0.09782715
0002c0 f6 bd 34 3d 29 0e 20 3e 31 fb 02 3e 11 8c a7 3d
       0.044126473 0.15630402 0.12791134 0.081810124
0002d0 72 07 48 3d 00 d3 72 3c dc 6f 29 3e 6e 42 b7 3d
       0.048835225 0.014820814 0.16546577 0.08948217
0002e0 29 22 21 3c f5 ff 16 be 0a 6e b2 bd 82 65 f2 3c
       0.009834805 -0.14746077 -0.087123945 0.029589418
0002f0 5e bf 37 bd f5 a3 2d be 60 3b f5 bb 1a 69 ac bd
       -0.044860236 -0.16957076 -0.0074838847 -0.08418484
000300 8b 87 c6 3d e3 5f a3 bd 76 96 7a bd 8c 5b df bd
       0.096938215 -0.07977273 -0.061178647 -0.10906133
000310 3f 70 17 3e 56 6b 05 3a 2c 3a 1d 3e 99 80 22 bc
       0.14788912 0.00050895417 0.15354222 -0.009918355
000320 dd 3d 88 bd 25 85 25 3e f3 e9 8d 3d d1 0b 39 bd
       -0.066524245 0.16164072 0.06929388 -0.045177285
000330 00 de 4a bc 43 72 aa 3d 23 10 39 bd 9a 7b fc bc
       -0.0123820305 0.08322575 -0.045181405 -0.030820657
000340 1c 75 1f be ba ed ee 3d 4c a8 84 bd 3c 96 c0 bd
       -0.15572017 0.116664365 -0.064774126 -0.09403655
000350 35 cf 0d 3e 5d 8f 35 bd 38 ff 32 3d 2d 01 a2 bd
       0.13848574 -0.044326175 0.043700427 -0.079103805
000360 ed 39 07 3e e8 56 60 bd 17 ca 9f 3d ee b8 26 be
       0.1320569 -0.05477038 0.078022175 -0.16281483
000370 00 4c 87 3c a7 ed 2a 3c 22 61 82 3c 11 95 11 3e
       0.016515732 0.010432637 0.015915457 0.1421702
000380 44 ea 1a bd 01 9c 54 39 e6 60 da 3d be 37 90 3d
       -0.03782107 0.00020276011 0.10663013 0.07041882
000390 5a ac dc 3d 47 16 1d be ca 2e 2b be 0e 6a ef 3d
       0.10775061 -0.1534053 -0.16717067 0.1169015
0003a0 3b 30 19 be b0 af 77 3c f3 37 fa 3d 13 e4 d6 bc
       -0.14959805 0.015117571 0.12217703 -0.026231801
0003b0 30 13 f5 bc 54 5a 0b bd 00 3e 57 bb 9c 0a b7 3c
       -0.029916376 -0.03402169 -0.0032843351 0.022343926
0003c0 8e 55 cb bd 66 5b 1f be 6a d5 5f bd 46 08 94 bd
       -0.09928428 -0.1556221 -0.054646887 -0.072281405
0003d0 fa de 3a 3e 8d 5a 91 3c 16 4d ff 3d 85 d6 0f 3e
       0.18249121 0.017743373 0.12465875 0.14046676
0003e0 a4 2f 1c be b8 3d c6 bd ff 1c c9 bd 01 ea 86 bd
       -0.15252548 -0.09679741 -0.09819984 -0.065876015
0003f0 bf d8 30 3e fa cf fc be 4d 29 a3 bd eb 67 49 3d
       0.17270182 -0.49377424 -0.07966862 0.04917137

arith.constant3 f4 [2]
000000 8e 20 9d be df 33 91 3e
       -0.306889 0.28359887

arith.constant4 f4 [32]
000000 c3 2b df bd 72 fe 44 be 7a 6e 1e be 88 b8 43 be
       -0.10897019 -0.19237688 -0.15471831 -0.19113362
000010 b2 16 47 be 10 82 e0 bd b4 76 c4 3e 1a 26 98 3e
       -0.19442251 -0.109623075 0.38371813 0.2971657
000020 b3 72 3a be e9 12 cc 3e d5 ff d9 bd d8 b2 35 be
       -0.18207817 0.39858177 -0.10644499 -0.17744005
000030 4a 77 34 be 45 9f c9 3e a6 26 8a 3e 05 40 51 be
       -0.1762363 0.39379326 0.2698261 -0.20434578
000040 41 98 ca 3e 3e 45 23 be d9 a7 60 bd 2f 2d 24 be
       0.39569286 -0.15944383 -0.054847572 -0.16032861
000050 f0 79 5b be 4f 94 1e be c6 8a 8d 3e 34 24 8e 3e
       -0.21433234 -0.15486263 0.27644938 0.27761996
000060 16 a8 ab 3e 3a d1 3c be 53 f9 a1 bd f7 ce ae bd
       0.33526677 -0.18439189 -0.07908883 -0.08535569
000070 35 82 95 3e b8 be 18 be f5 4b a2 bd 55 0b 9e 3e
       0.29200903 -0.14916503 -0.07924644 0.3086802

sequential_1/dense_1_2/BiasAdd/ReadVariableOp f4 [64]
000000 7b c5 64 3e f9 fc 14 be e2 55 87 3e c5 01 9e be
       0.22340958 -0.14549626 0.2643271 -0.30860725
000010 82 10 80 be d3 65 2a be de d6 66 bc 1d 63 16 3e
       -0.25012594 -0.16640405 -0.014089314 0.14686246
000020 eb 11 8a 3e 1d 63 f0 bc 11 dc 13 be 31 5b 06 be
       0.26966795 -0.029344136 -0.14439417 -0.13120724
000030 6a 33 27 be ca 9f 85 be 95 27 37 be 97 aa 19 3e
       -0.16328207 -0.26098472 -0.17886193 0.15006481
000040 53 44 a3 bd a9 8b a1 be 53 db 05 be 65 eb 98 be
       -0.07972016 -0.31551865 -0.13071947 -0.29867092
000050 97 bb 44 be b4 0a 6a 3e 8d 9c b6 3d dc 09 3a 3e
       -0.19212185 0.22855645 0.089165784 0.18167824
000060 f8 0d 1f 3e 30 1b 89 be 44 17 64 3e 8a 6c 9d be
       0.15532672 -0.26778555 0.222745 -0.3074687
000070 6f 7b 9d bd dc b7 a4 be 04 e9 4f bd 4f 50 31 be
       -0.07689559 -0.32171524 -0.05075933 -0.17315792
000080 3c 52 a8 be 16 a8 49 be c9 b2 99 be bd a4 f7 bd
       -0.3287524 -0.19693026 -0.30019215 -0.12091968
000090 c8 5e 46 3e dd 86 e5 bc f6 72 8b 3e 4d 24 9a 3e
       0.19372094 -0.02801841 0.27236146 0.3010582
0000a0 d3 a1 92 3e 40 0e cb bd 61 e3 8b be ed db 60 be
       0.28639087 -0.09914827 -0.27321914 -0.21958895
0000b0 ca 2b cb bd 6a 39 88 3e 05 11 25 be d2 36 9f be
       -0.099204615 0.26606303 -0.16119774 -0.31096512
0000c0 6c b5 48 be 80 a8 e8 3d 27 21 47 3e c4 fd ea bd
       -0.19600457 0.11360264 0.1944624 -0.11474183
0000d0 73 f5 79 3e 26 6e 76 bc 13 dc 15 3e 00 f0 19 be
       0.24410038 -0.01504091 0.14634733 -0.15032959
0000e0 de 0c 55 be d0 89 20 3e 98 2b aa be be 55 48 3e
       -0.2080569 0.15677571 -0.33236384 0.19563958
0000f0 c6 3b 20 be 0d 53 22 bd db 59 8c 3e 29 d6 a2 be
       -0.15647802 -0.039629985 0.27412304 -0.31804016

sequential_1/dense_1/BiasAdd/ReadVariableOp f4 [128]
000000 20 36 f5 3d 3e b6 f5 be 01 1d 86 bb 00 00 00 00
       0.11973214 -0.47990602 -0.004092813 0.0
000010 37 e3 dc bb 00 00 00 00 00 00 00 00 00 00 00 00
       -0.0067409533 0.0 0.0 0.0
000020 9f 3d bd bb 44 20 32 bf 66 4a bd 3c 67 00 ce bb
       -0.005775168 -0.69580483 0.023106765 -0.006286669
000030 26 b4 c4 bb 00 00 00 00 00 00 00 00 00 00 00 00
       -0.0060029207 0.0 0.0 0.0
000040 46 b3 c3 bb a7 34 a7 bb 62 fa 96 bb 00 47 b0 bb
       -0.005972299 -0.005102712 -0.0046074847 -0.0053795576
000050 d4 00 88 bb 00 00 00 00 11 78 c4 bb 0e 88 b7 bb
       -0.0041504893 0.0 -0.0059957583 -0.005600936
000060 5f a2 c4 bb 00 00 00 00 78 f3 45 bb 82 10 26 bf
       -0.0060008015 0.0 -0.0030204933 -0.6486894
000070 ca c3 e2 ba b3 95 c4 bb d3 ce 22 bc 00 00 00 00
       -0.0017300781 -0.005999291 -0.009937006 0.0
000080 78 8b 51 bb 69 3f 10 bc 89 17 25 bf c9 61 93 bb
       -0.0031974 -0.008804181 -0.64489037 -0.004497741
000090 25 bd 27 bc 89 91 c4 bb 2a ef aa bb d3 89 b4 bb
       -0.010237967 -0.0059987945 -0.005216499 -0.005509594
0000a0 4c 52 56 ba 00 00 00 00 00 00 00 00 83 a5 c4 bb
       -0.00081757153 0.0 0.0 -0.006001176
0000b0 95 37 77 bb 5a 70 c4 bb 86 26 0a 3c 51 db 3d bb
       -0.0037722338 -0.0059948387 0.008432036 -0.0028969834
0000c0 40 61 d5 bb e2 3a a6 bb 00 00 00 00 5f 06 9f bb
       -0.0065118372 -0.0050729373 0.0 -0.0048530544
0000d0 46 08 f5 bb 00 00 00 00 2b a3 49 3d b2 e1 85 bb
       -0.007477793 0.0 0.049227875 -0.004085743
0000e0 9a 2a 64 3b 00 00 00 00 55 3f 57 bc 61 89 b6 bb
       0.0034815432 0.0 -0.013137658 -0.005570576
0000f0 d3 e5 b3 bb 23 0d f6 bb 00 00 00 00 50 b2 c4 bb
       -0.0054900437 -0.0075088902 0.0 -0.006002702
000100 67 91 c4 bb 04 b1 e4 be 7c dd 05 bb 00 00 00 00
       -0.0059987786 -0.44666302 -0.0020426204 0.0
000110 00 00 00 00 a1 1a c4 bb 4a 04 02 bc b5 6b 4a bb
       0.0 -0.0059846197 -0.007935593 -0.0030886952
000120 00 4a cf 3d 00 2d 92 bb 16 b7 c4 bb 7d f9 7b bb
       0.10121536 -0.004460931 -0.006003271 -0.0038448267
000130 00 00 00 00 c6 8b c4 bb cc 2b 9e bb fd c3 b3 bb
       0.0 -0.0059981076 -0.0048269983 -0.00548601
000140 c3 08 00 3d ec 89 ff 3a fd 8a cd 3d 3d ea b9 bb
       0.031258356 0.001949606 0.100362755 -0.0056736753
000150 fe bb ad bb a3 36 fe bb 00 00 00 00 64 01 c4 bb
       -0.0053019514 -0.007757978 0.0 -0.005981611
000160 e4 39 8a bb 00 00 00 00 1d 11 3d 3e 00 00 00 00
       -0.004218327 0.0 0.1846356 0.0
000170 ff cc b0 bb 5f b5 cb bb 4e 6e 05 bc d2 d5 b0 bb
       -0.005395531 -0.0062166895 -0.0081439745 -0.005396583
000180 39 8f b4 bb de f0 08 bc 95 58 c4 bb 9a d5 cd bb
       -0.0055102375 -0.008358208 -0.005992005 -0.006281567
000190 b4 22 b8 bb 00 00 00 00 f4 6a a6 bb 88 2f ae bb
       -0.0056193713 0.0 -0.005078668 -0.0053157248
0001a0 0c 64 c3 bb 00 00 00 00 f4 97 c4 bb 3d 69 dc bb
       -0.0059628543 0.0 -0.0059995595 -0.0067264126
0001b0 00 00 00 00 00 00 00 00 f0 df 65 bb 64 5c ce bb
       0.0 0.0 -0.0035076104 -0.006297635
0001c0 00 00 00 00 00 00 00 00 00 00 00 00 27 e3 4d be
       0.0 0.0 0.0 -0.20106183
0001d0 e1 f5 43 3e 5e 84 ba bb 00 00 00 00 f2 97 c4 bb
       0.19136764 -0.005692049 0.0 -0.0059995586
0001e0 00 00 00 00 89 1a 72 bb 00 00 00 00 8d da 56 3e
       0.0 -0.0036942086 0.0 0.20981808
0001f0 00 00 00 00 45 72 16 bf 58 b2 c4 bb 58 02 25 bf
       0.0 -0.5876811 -0.0060027055 -0.644567

sequential_1/dense_1/MatMul f4 [128, 1434]
000000 84 68 0d 3d 7a 47 73 bc 08 8b e6 3d fe 04 02 39
       0.034523502 -0.014848584 0.11256987 0.00012399626
000010 bb b6 96 bc 6d 53 e3 3d 55 97 32 bd 96 86 e4 3c
       -0.01839768 0.110998966 -0.043601353 0.027896207
000020 b6 1d b5 3c 40 97 94 bd 4c df e2 3c 35 d5 d5 3d
       0.022108894 -0.07255411 0.027694367 0.10441057
000030 84 d7 8a bd 41 c7 0f 3c 82 a3 9c 3d d4 5e ac bc
       -0.067793876 0.008775533 0.07648374 -0.021041311
000040 0d 88 0e 3d cd 5d 68 3d 70 5e 5f bd 37 fe 41 bd
       0.034797717 0.05673008 -0.054533422 -0.04736158
000050 bd a1 c5 3d 65 a4 b7 3d 3e 15 ed 3c 37 2b 08 ba
       0.0964999 0.08966903 0.028940793 -0.0005194428
000060 2e 01 bf bd 4c f4 c4 bc 64 56 f3 3c ac 6c 86 bd
       -0.09326397 -0.024042271 0.02970428 -0.06563696
000070 c1 5d 08 3d ac 93 1c 3e 76 50 72 bb 24 84 f4 bc
       0.033292536 0.15290707 -0.0036974228 -0.029848166
000080 29 97 8f 3d 78 15 e7 3b 6f d7 7e bd 26 90 b8 3d
       0.070112534 0.00705212 -0.062217172 0.09011869
000090 75 28 52 bd c3 2e 62 3d bf 40 32 bc 9f 8a 05 3d
       -0.051308114 0.055220377 -0.0108796945 0.032602903
0000a0 d3 03 25 bb 30 04 a9 bc 6c 87 9c bd b8 2e 01 3d
       -0.0025179281 -0.02063188 -0.07643017 0.031538695
0000b0 8e 95 82 3d b2 5f 62 bc 0b fa 19 3b 80 28 0f 3c
       0.063761815 -0.013816761 0.0023494984 0.008737683
0000c0 01 9d 27 3d b4 52 e9 bc fa 5a 77 3d 9b 96 b9 3c
       0.040921215 -0.028481819 0.060389496 0.022654822
0000d0 e1 b1 17 bc 0b a9 98 3d 09 c9 8a bd b4 12 84 ba
       -0.009258718 0.074541174 -0.06776626 -0.0010076375
0000e0 05 90 9a bd 74 7f 8e bc 6e 6b 14 bd 58 6c 23 3d
       -0.07547001 -0.017394759 -0.036235265 0.039898247
0000f0 57 3f a6 3c 9a e3 5b 3d e6 04 9f 3d 0c 66 af 3d
       0.020293875 0.053683855 0.07764606 0.08564386
000100 b0 a4 51 3d 16 c6 b9 bd 9a 24 39 bd e0 91 9c bc
       0.05118245 -0.09070985 -0.04520092 -0.019112527
000110 5a 11 1f 3e 55 7d c1 bc db 0a 26 bc 53 0b 0a 3e
       0.15533963 -0.023619333 -0.010134424 0.13480882
000120 22 f9 c5 bb e6 75 7b 3d b3 00 09 bd 87 c2 ce 3d
       -0.006041662 0.061391734 -0.033447932 0.10095697
000130 6c 10 27 bc e5 a5 d2 bd c1 ce d5 bc d3 6b 83 bc
       -0.010196786 -0.10285548 -0.026099565 -0.016042626
000140 40 16 79 3d 19 25 df 3c ca 96 69 3d 32 0e fa 3d
       0.060812235 0.02723937 0.05702857 0.12209739
000150 f4 51 1f 3c d1 78 9f 3d 83 e0 94 3d 75 4c 81 3d
       0.009724129 0.07786716 0.07269385 0.06313411
000160 1f 68 ab 3d 4a e2 4e 3d ef ce 69 3d 79 b4 a0 3c
       0.08369469 0.050508775 0.057082113 0.019617306
000170 a7 52 ba 3c b8 51 96 3d 04 44 29 bd 2b 83 d9 bd
       0.02274449 0.07339805 -0.04132463 -0.106207214
000180 c3 92 6d bd 89 38 1c bc f2 9e 7f bd 00 42 d3 bb
       -0.05800129 -0.009534963 -0.06240744 -0.006447077
000190 68 44 12 bd 20 23 24 bd 02 b8 6f 3d 46 c0 26 3d
       -0.03570977 -0.04007256 0.058525093 0.04071071
0001a0 c0 f3 e0 bd b4 3d c1 3c 8f 0c 1c 3c 2f 53 77 bd
       -0.109839916 0.023588993 0.009524479 -0.060382064
0001b0 14 dd 52 bd 7c 76 78 bb af 76 b9 3d a2 7b f5 3c
       -0.051480368 -0.003791242 0.0905584 0.02996618
0001c0 ac d7 16 bd 8e 9b ab 3d f8 37 91 bd fd bb 02 3d
       -0.036826774 0.08379279 -0.07090753 0.03191756
0001d0 40 8b 15 3c 54 ec 5b bd 90 72 53 3d 8c 39 11 3e
       0.009127438 -0.053692177 0.051622927 0.14182109
0001e0 48 77 52 bd 61 ff 10 bd 10 21 5e 3e 38 f4 cf bc
       -0.051383287 -0.0353998 0.216923 -0.025385007
0001f0 2b f1 7c bd 66 25 1f 3e 59 21 74 3c 86 29 9c 3c
       -0.061753433 0.1554161 0.014900529 0.019062769
000200 18 83 73 3e 65 2e 1e 3b 53 3b 33 3d a1 13 04 3e
       0.23780477 0.002413654 0.043757748 0.12898113
000210 58 d8 dd 3b 1c 21 40 bd 77 44 1b 3e 87 1a b3 3c
       0.006770175 -0.046906576 0.15162836 0.021863235
000220 c7 5d 1b bd bf 87 cb 3d 22 e3 60 3d b5 e4 86 3d
       -0.03793123 0.09938001 0.05490411 0.06586591
000230 9e 4b a9 3b 88 f3 d8 3c 9e 4d 03 3c 22 a1 f5 3d
       0.005166485 0.026483312 0.008014111 0.11993624
000240 40 8e 95 3b 19 ef 3d 3d d8 c2 b6 3d 93 dd 1a bd
       0.0045640767 0.0463706 0.08923882 -0.037808966
000250 98 fb 1e bd af 3b bf 3c 08 b3 b4 3d ac ac c7 3b
       -0.038814157 0.023343889 0.0882321 0.006093582
000260 ca 12 2d bd e6 f8 d2 bc a8 0a b2 3c 14 ee 56 3d
       -0.042254247 -0.02575345 0.021733597 0.052473143
000270 18 7b af bc 99 df 3b 3d 7f 8b 54 3d 47 1a 24 3d
       -0.021421 0.045867536 0.051890846 0.040064123
000280 9a 46 c7 3c 8e 97 d3 3c 1d 76 b4 bc dd 72 a7 3d
       0.024325658 0.025829103 -0.022028977 0.08176205
000290 d2 88 0e be d0 67 19 3a fc f4 07 bd 39 60 90 3d
       -0.1391938 0.0005851956 -0.03319262 0.07049603
0002a0 f2 59 81 bc a1 26 90 3c cc a2 8f 3d 16 69 49 3d
       -0.01578996 0.017596545 0.07013473 0.049172483
0002b0 25 f7 16 bd c5 55 34 3e 9e 20 b4 3d a4 36 18 3d
       -0.03685679 0.17610843 0.08795284 0.037161484
0002c0 73 73 0e be c3 c4 98 bb c9 25 39 3d f1 ec 2d 3d
       -0.13911228 -0.0046621277 0.04520205 0.042462293
0002d0 71 a1 33 bb 87 52 c3 3c 2d be b5 3d 85 d9 6f bc
       -0.002740946 0.023843063 0.08874164 -0.014639263
0002e0 e2 d7 0c 3b 80 e8 71 3e 06 9b fe bc 6e 97 af 3c
       0.002149098 0.23623848 -0.03107978 0.021434512
0002f0 8f 11 be 3e a3 80 8f 3d bf df 31 3d 11 6b 70 bd
       0.3712277 0.070069574 0.04342627 -0.058695856
000300 4e b5 3f bd 5c a1 92 bc d0 a5 3d 3d 17 c0 4e bd
       -0.046803765 -0.017899208 0.04630071 -0.05047616
000310 eb 93 55 3d 2b db aa 3d 2b d8 56 bd 0b ef 7f bb
       0.05214302 0.08342584 -0.052452248 -0.0039052393
000320 9b ad 47 3d ee b8 44 bd c0 98 14 3d 2b 0c 75 3d
       0.048749547 -0.048027925 0.036278486 0.059826057
000330 50 20 2f bc 9c 55 90 3d ab 23 c8 bd 8a cb 9a bc
       -0.010688856 0.07047579 -0.09772428 -0.018895883
000340 ef b2 d7 bc 4e e4 0b 3e 04 4b e1 3c 4c 35 8c 3a
       -0.02633044 0.1366131 0.02750159 0.0010697036
000350 27 69 c0 bd 3d 72 4c 3c af bf a0 3a 4b 73 44 bd
       -0.09395056 0.012478408 0.0012264157 -0.047961514
000360 84 81 81 b9 33 b8 00 3d 89 cc e8 3d 79 75 a0 bd
       -0.00024701294 0.031425666 0.11367137 -0.07834906
000370 fa 29 e3 3c 1a 75 09 3e e6 40 4e bd 6e 51 b0 bb
       0.027729977 0.13423577 -0.05035486 -0.005380801
000380 a7 1d 8b 3e 8c 32 2b bd af 41 5d bd b2 98 c4 3b
       0.2717106 -0.041796252 -0.05401772 0.005999648
000390 39 0a 89 bd c8 c1 82 bd bb 8d 87 3e 79 0c 84 3c
       -0.06691403 -0.06384617 0.2647532 0.016119229
0003a0 77 51 4f 3c ac f8 c2 3e d6 5a 9f bc a6 2b 7f bd
       0.0126537 0.38080347 -0.019452494 -0.062297486
0003b0 22 93 8b 3e 8a b1 0d 3d ea 35 6a bd 68 99 18 3e
       0.2726069 0.034593143 -0.057180323 0.1490227
0003c0 43 86 0b 3d 7e 5b 89 bd c4 9e 4d 3e 2c 06 df 3c
       0.03406359 -0.06706904 0.20080096 0.027224623
0003d0 18 57 e8 bc 03 c9 d5 3d 42 1f 11 bd a3 16 d8 bc
       -0.028361842 0.104387306 -0.0354302 -0.026377982
0003e0 a8 9c 0b bd cc b1 da 3b 70 48 44 bd 74 8e 00 3c
       -0.034084946 0.006674027 -0.047920644 0.0078464635
0003f0 89 2c d0 3c 30 c7 a8 ba 8d 56 12 3e a4 62 35 3d
       0.025411861 -0.0012876745 0.14290829 0.044283524
