android/app/src/main/assets/converted_model2.tflite (tflite, 737496 bytes, 4 tensors)

arith.constant f4 [2, 128]
00000000: 7bf7 a0be 5b9d 5a3e 18ce ebbd aafe 08be
00000010: 7df0 2d3e 230f 89bd 1c4c 7bbe 5f0f 51be
00000020: 7d89 c1bd e8a9 dbbd 24a1 c9bd d0b5 72bd
00000030: c56e af3d 8ba7 f8bd 11d3 39bc 4dfa 5bbe
00000040: 6a6e 613e c9f1 dfbe cff4 023d 3e6b 253e
00000050: 21d1 2d3e 4ddb ecbd fbcc 303e 1d34 f83d
00000060: 591c 2a3e 4eb0 ea3d d77b 263e 4fea dcbe
00000070: b25f 22be 043f 33be 20dc 763e 67a9 e7bd
00000080: f228 503e 61a1 50be d330 c33d 5010 8c3c
00000090: c5cf 553d 3b07 b2bd 0697 c3bc 697e 5fbb
000000a0: 0bbd 223e d2fd cfbd ad68 4cbe f09d 10bd
000000b0: e0fc 333e 50c2 3bbd 473c 383c a30b 47be
000000c0: 52e3 4dbe 077f 3b3d ebde 1ebd 6b07 863e
000000d0: 8777 043e c858 c53c d7ac 323e e912 383e
000000e0: 4a50 e2bd 1c91 2a3d 3d84 abbe efe7 263e
000000f0: 012a dbbe e5f6 05be 3bfc 003e 4411 3c3d
00000100: ac00 423e 75a5 653d 0363 e63d 807c 79bd
00000110: 7748 dfba 0355 2ebe 9a3c 263d 4d39 bfbd
00000120: d7b2 2bbe 38cf 37be 55fa 31be a3ae 323e
00000130: 77bc e83b 3067 9dbd c07a 44be e15e be3d
00000140: 7898 4cbe 89f7 423e f5e9 403e 48ed 233e
00000150: 72d3 253d 6dd7 8bbe 58af 403e 6047 db3c
00000160: a9da 50be 12b0 10be 265b 19be de48 2bbe
00000170: ed57 543e 8823 533e fee1 3bbe 07a6 38be
00000180: d549 433e 9a9e bd3d 426f 2a3e a930 5dbd
00000190: 7ff8 31be d878 35be f56b 9c3d 3d98 593e
000001a0: 9298 e6bd d225 d83d d3c4 093c 9918 44be
000001b0: ac4d 833d 2527 a4bd c035 a1bb c7f9 003d
000001c0: 73e7 7e3e 3aa9 e6bd 3307 bdbe e87c 52be
000001d0: 152e 65bd 8714 cd3d 4525 1f3e a322 b8bc
000001e0: e4d2 5e3d 0c44 443e 0294 0e3e a29e 0d3e
000001f0: ff97 14be 1644 b8be 880c 47be 942f 1f3d
00000200: 1929 a33e 87dc 64be 706c 193c c083 a7bc
00000210: cd6c 703d 1dc2 63bd d267 4d3e be59 303e
00000220: 0fb7 51be 4f9d 1db9 feeb 26bd 2e2c 28be
00000230: 742a 043d d3e9 913d 5a4d 403e ece7 bf3d
00000240: ba4b 68be eb46 e33e 03aa 51be 29a2 1dbe
00000250: 4029 26bc 43e1 9bbd 8e2f d43c 3f3d abbd
00000260: e260 533c d839 843c 000d 013c 10ea d73e
00000270: b42e aebd 4f6c 86bd 8285 6bbe 56a0 4cbe
00000280: faca 4abe 1891 bc3c 60ab 1cbe 6d6f 21be
00000290: 75b0 a53d 2723 4abd 6bbb 5fbd 72c2 153b
000002a0: f00f 24be b91f 45be e177 2dbe 7bc7 033e
000002b0: ce8a 2dbe 8068 f3ba 0afa adbd c646 63bd
000002c0: 64f9 41bd 2f80 103e 1259 42be 916c 88be
000002d0: ccb5 1b3e ba4c 2dbe e76a 25be d88e aebc
000002e0: b72e 0cbe f201 29be 8372 ab3e 7c68 283d
000002f0: f5c7 dd3e 2349 20be 567d c23d 6621 9fbd
00000300: 67ce 323e 33d5 2cbe 5bd1 f93d 5c24 e0bb
00000310: 68ef 963e b0ab 2e3c e36f 8cbd 8b62 19be
00000320: cfdf b4bc 9fa1 1ebe 081b 1abd a976 2abe
00000330: 743d 29be 92f5 943d 2804 1ebd 5b52 4dbe
00000340: c6b6 28be f590 3fbe f99d 45be 24a3 1f3e
00000350: 0067 ca3d d714 8e3e 6d00 133e 1cdb 333d
00000360: 4665 4d3d 68cf b1bd e73a afbc 827a 0cbe
00000370: 087d 8b3c 4eaa 8fbc 7d4b c83c 4748 2bbe
00000380: 1edc ab3d 9cd3 03be 6e10 0e3e 4055 bebd
00000390: 2fed 35be 3b18 a13c f400 6a3d 2045 53be
000003a0: 9b0e c8bd 9088 cfbc cbab 39be e8ae 81bc
000003b0: acb7 de3d 5834 d7bd 8071 2f3c a260 1fbd
000003c0: bc92 82be 6d84 cdbd af60 bb3e 2de5 163e
000003d0: 2035 90bd 9f2f bd3d e098 bcbd 686c db3d
000003e0: 6cd5 04be 556f 833c 3d14 57bc 6934 ee3d
000003f0: 797b 7b3d a1db b43e eca2 453e 4935 cdbd
-0.31438813 0.21349089 -0.11513919 -0.13378397 0.1698627 -0.0669234 -0.24540752 -0.2041602
-0.09450052 -0.107257664 -0.09845188 -0.05925542 0.085660495 -0.12141331 -0.011341826 -0.21482201
0.22014776 -0.43739155 0.03197175 0.16154191 0.16974308 -0.11565266 0.17265694 0.12119315
0.16612376 0.11459409 0.16258179 -0.43147513 -0.15856817 -0.17504507 0.24107409 -0.11311608
0.2032812 -0.20374061 0.09530797 0.017097622 0.052200098 -0.08692785 -0.023875725 -0.0034102446
0.15892427 -0.10155834 -0.19961806 -0.03530687 0.17576933 -0.045839608 0.01124484 -0.19438033
-0.20106247 0.04577544 -0.03878681 0.26177534 0.12936221 0.024090186 0.17448746 0.17975964
-0.1105047 0.041642293 -0.33499327 0.16299413 -0.42805484 -0.13082464 0.12596218 0.045914903
0.18945569 0.056065995 0.11249354 -0.060909748 -0.0017035146 -0.17024617 0.040585138 -0.09337101
-0.1676744 -0.17950141 -0.1738065 0.17449431 0.007102545 -0.07685697 -0.1918745 0.092954405
-0.19980037 0.1903974 0.18839248 0.16008484 0.040484853 -0.27312794 0.18816888 0.026767433
-0.20395912 -0.14129665 -0.14976177 -0.16727015 0.20736666 0.20619023 -0.18347928 -0.18032084
0.19071133 0.092587665 0.16644004 -0.054001484 -0.1737995 -0.1772188 0.07637779 0.2124948
-0.11259569 0.10554089 0.008408743 -0.19150008 0.06411299 -0.08015279 -0.0049197376 0.031488206
0.24892978 -0.11262746 -0.36919555 -0.2055546 -0.05595215 0.10013681 0.15541561 -0.022477454
0.05440034 0.19166583 0.13923648 0.13830045 -0.14511107 -0.35989445 -0.19438374 0.038863733
0.31867293 -0.2234975 0.009364232 -0.020448565 0.05869751 -0.055605043 0.20059136 0.17221734
-0.20479988 -0.00015031289 -0.040752403 -0.16423103 0.03226705 0.071246766 0.18779507 0.093704075
-0.22685137 0.44390044 -0.2047501 -0.1539389 -0.010141671 -0.07611325 0.025901582 -0.08361291
0.012901517 0.016140863 0.007876635 0.42170763 -0.08505002 -0.06563627 -0.23000148 -0.19983038
-0.19803992 0.023018405 -0.1529975 -0.15765162 0.08090297 -0.04934993 -0.054622095 0.0022851494
-0.16021705 -0.19250382 -0.16940261 0.12869065 -0.16947481 -0.0018570572 -0.08494957 -0.055487417
-0.047356978 0.14111398 -0.1897929 -0.2664533 0.15206069 -0.169238 -0.16154061 -0.021308348
-0.13689695 -0.16504648 0.33485803 0.04111527 0.43316618 -0.156529 0.09496562 -0.07770042
0.17461549 -0.16878204 0.121981345 -0.006840272 0.29479527 0.010661051 -0.06857278 -0.14978997
-0.022079377 -0.15491341 -0.037623435 -0.16646828 -0.16527349 0.07273401 -0.038578182 -0.20050947
-0.16475973 -0.1870764 -0.19298543 0.15589577 0.09882927 0.27750275 0.14355631 0.04391013
0.05014541 -0.08682138 -0.021390392 -0.13718608 0.017027393 -0.017537262 0.024450058 -0.1672679
0.083915934 -0.12873691 0.13873455 -0.09293604 -0.1776626 0.019664874 0.057129815 -0.20631838
-0.09768411 -0.025333673 -0.1813194 -0.015830472 0.108748764 -0.10508031 0.010708213 -0.038910516
-0.25502574 -0.10035024 0.365972 0.14735861 -0.07041383 0.09237599 -0.09208846 0.10714036
-0.12972039 0.016044298 -0.013127384 0.1163109 0.06139705 0.35323814 0.19300431 -0.10019929

arith.constant1 f4 [2]
00000000: b15e 0dbf f545 0c3f
-0.5522261 0.54794246

sequential_17_1/dense_34_1/BiasAdd/ReadVariableOp f4 [128]
00000000: 82ec 063f 3319 edbe 0000 0000 0000 0000
00000010: 155c c2bb e8e5 c3bb c0c2 153e ca52 143e
00000020: 9ad8 14bd 6ba8 c4bb d025 acbb dd9e c4bb
00000030: a4b6 b3bb 22bc c4bb d18c 12bb 7aef dc3b
00000040: 8496 10bf 3597 f83e c893 c4bb f367 42bb
00000050: 0000 0000 e537 c4bb 9f7c c4bb 1b68 18be
00000060: d867 a9bb 0000 0000 0000 0000 5e60 fd3e
00000070: c1bf c4bb b2b2 2e3d b82c f0be 0000 0000
00000080: 4b2a 10bf 0000 0000 ccf2 bbbe 0000 0000
00000090: 5e81 80bb 84b5 c4bb 251f 7bbb 346a 7abb
000000a0: b2a6 d0be e892 c8bb c741 3cbb 0000 0000
000000b0: 5afa 03bf 0000 0000 6db8 c4bb e801 79bb
000000c0: c9b0 c4bb af81 7bba d046 87bb 4377 0ebf
000000d0: 23d5 76ba 0000 0000 127b d3bb 0000 0000
000000e0: 0000 0000 0000 0000 77ad 283f 0000 0000
000000f0: 55ab 083f af24 81bb c797 ffba 0000 0000
00000100: 51a7 95bb 963e a4bb f996 57bb 7566 dbbb
00000110: 053d 9c3c 9de3 4bbb 8f08 67bb 85cf 9dbb
00000120: 45ba c4bb 0000 0000 6b24 ea3b a92f 1cbf
00000130: 355f c4bb 0000 0000 0000 0000 9aba c4bb
00000140: eebe c4bb c397 23bf 7280 24bf 88d1 e0bb
00000150: 5cb8 b5bb 6292 0c3f b20c c3bb 0000 0000
00000160: 33aa c4bb a468 b0bb 7ab9 c4bb a910 28bb
00000170: a62e 6dbb 40da 75bb 57ab c4bb 4f44 1ebb
00000180: 3b41 03bd 0000 0000 7a2a abbb 88a7 c3bb
00000190: c9c1 c4bb 8488 88bb 515c 9dbb 9da7 e8be
000001a0: 0d77 c4bb 0000 0000 62b7 c4bb 0000 0000
000001b0: e383 033c 78e4 aebb 0000 0000 fc69 c4bb
000001c0: b43d 0ebf d7ae a8bb 9a03 333f 15b4 09bc
000001d0: 0ebc 96bb 711c 05bc db91 16bc 187e 69ba
000001e0: 0000 0000 5100 67bb 84e6 c6bb 3fcd 8ebb
000001f0: 35a9 c4bb 14e5 073f cd37 483e 0000 0000
0.5270463 -0.46308288 0.0 0.0 -0.005931387 -0.0059783347 0.14625072 0.14484707
-0.03633938 -0.0060015223 -0.005253531 -0.0060003833 -0.005484419 -0.0060038725 -0.0022361765 0.006742415
-0.5647967 0.48552862 -0.005999062 -0.002966401 0.0 -0.0059881085 -0.0059963013 -0.14883463
-0.00516985 0.0 0.0 0.49487585 -0.006004304 0.042650886 -0.46909118 0.0
-0.56314534 0.0 -0.36708677 0.0 -0.003921672 -0.0060030837 -0.0038318124 -0.0038210275
-0.40752178 -0.006121028 -0.002872573 0.0 -0.5155388 0.0 -0.0060034306 -0.003799552
-0.0060025197 -0.00095942145 -0.0041283146 -0.5565073 -0.0009415915 0.0 -0.00645388 0.0
0.0 0.0 0.65889686 0.0 0.5338643 -0.0039411406 -0.0019500189 0.0
-0.004567065 -0.0050123436 -0.0032896383 -0.0066955634 0.019072065 -0.003111101 -0.0035252904 -0.004815998
-0.0060036504 0.0 0.0071454546 -0.61010224 -0.005992795 0.0 0.0 -0.00600369
-0.006004206 -0.63903445 -0.6425849 -0.0068609156 -0.005545659 0.5491086 -0.005952441 0.0
-0.0060017346 -0.005383568 -0.006003556 -0.0025644696 -0.0036191135 -0.003751412 -0.0060018706 -0.0024149602
-0.03204463 0.0 -0.0052235695 -0.005970899 -0.0060045463 -0.0041666646 -0.0048022647 -0.4544038
-0.0059956373 0.0 -0.0060033062 0.0 0.00802705 -0.005337294 0.0 -0.0059940796
-0.555629 -0.0051477957 0.6992737 -0.008404751 -0.0046000546 -0.008124457 -0.009190048 -0.0008907034
0.0 -0.0035247991 -0.00606996 -0.0043579633 -0.0060016164 0.5308392 0.19552536 0.0

sequential_17_1/dense_34_1/MatMul f4 [128, 1434]
00000000: 5c48 d93a 65bf 883d 1f0e a7bc 8a49 f9bb
00000010: 7251 04bd 3970 06bd bdaf 783c df83 963d
00000020: d480 a9bd 346e 84bd 6aa2 40bd b173 a2bc
00000030: 5a33 95bd 9739 453d 52c5 29bc 0cdd b83b
00000040: 79df 493d b975 4b3a ca8c 91bd 4240 ec3b
00000050: 2e26 d73c 2eca fb3d 783d b53b 7069 863e
00000060: c523 44bd b84c 5ebd 7af8 08bd 7fd3 f4bc
00000070: 4396 0abd 0cf9 a9bd 6723 103d 169d 38be
00000080: be74 d43c 7f52 bbbc 88f3 843c daf7 bdbb
00000090: 31cd 363d cf69 a73d eff0 09be 759a 843d
000000a0: 3274 953b 1c09 f9bd 69e2 fdbc 777c adbc
000000b0: 54b8 eb3b 2a62 a5bb 8514 903d ee8c e3bd
000000c0: 614b 013c 5b38 a63a 1678 b4bd 888b 08bc
000000d0: 1002 3e3d 2656 88bd 79b3 adb9 ef17 7e3c
000000e0: 6f37 6abe 16c1 0dbd e9d3 1bbd 858b 81bb
000000f0: a9c6 9bbd 957c c3bc 0b5a 073b f578 103d
00000100: bba3 c2bd ec6f 1b3d b8e8 36bc d3bf 983c
00000110: b876 163f 8fdc a63d 47ca bbba 0add e63e
00000120: 6850 e23d 576f e6bc bdd7 be3e aadb ef3d
00000130: 9e99 373d f38e 3b3e e53c 963d be35 03bd
00000140: 284f a53e 16b4 193d 846e e6bc 00ff b53e
00000150: cccc 953d 23fe 263d 6906 993e 072d 933d
00000160: 8092 29bd 9809 b13e 562f ec3c 4c47 5fbd
00000170: 6948 a63e a8c5 af3d f383 963c de5f 263e
00000180: 55af 06bd f1a8 a13d e3af 69be d8eb 8c3d
00000190: 0e04 6c3c 1776 1b3e c74a d83d 787c 6a3d
000001a0: 1a97 393d 382b b23d dc24 563d b3cd db3d
000001b0: 178e 80bc ac51 2fbd ea56 863e 8d55 3dbd
000001c0: 71fc 053d 898f 633d a9cf 33bd fe4e c83c
000001d0: ca60 5cbd 54e9 013d b05d 993d ac52 1b3e
000001e0: d58b 063d 8257 0f3d d836 d43e a628 06bc
000001f0: 0c89 3d3d 0fe7 293e 6cd7 0c3c 0847 533d
00000200: 57db f03e 2c67 24bd 1ecc 783d 02cf 273f
00000210: 4700 7ebd 7f42 273d e530 633c 4f0d 32bb
00000220: 0686 43bd 8cad 063d e305 db3d fc1a 013d
00000230: 723a 293e bd70 08bd 7102 2b3d f30a 033e
00000240: 4223 08bd 9778 22bd 97b5 023d b7c2 003c
00000250: 0e53 afbc f9d4 2abd 0ecc 503d b59c 583d
00000260: c2da a03e 66fa 0dbd 3d77 3bbc 5e90 113d
00000270: dacd ce3d 2b59 a9bc d43c bb3d f429 033e
00000280: 3797 a1bb e50e 843d a474 7a3d 8092 8dbd
00000290: 56c9 55bc 1469 513c 403c a73d 17ac 62bd
000002a0: a83a ab3d 70cd dfbc 4b24 b23e 153a b43c
000002b0: d89d 1abc eba5 123f 7685 773d 9664 d23d
000002c0: ff35 9fbd 6edc 5fbd f09c ad3c a7bd 92bd
000002d0: 16ec f8bc 6c11 a73c 18b7 efbd e4be 94bd
000002e0: c8d9 4bbd 92c6 493f 0a1b 67bc 7c4c 88bd
000002f0: 90f7 863f ba7c 4e3d 70aa 083d 703f 213d
00000300: 7a4e 813c fc93 eabb 576b dabc b942 443c
00000310: 6743 30bc 7491 983d 5ed2 a53c 971f 05bd
00000320: 4f02 a33d 0ea4 783c bed0 38be 949e 213d
00000330: 6e61 f83d 8773 c3bd c8c9 be3d 7867 ce3d
00000340: 5e98 acbd ee64 9a3d ea1b fa3d fd3e ef3c
00000350: a072 ac3d b2b1 fa3d f65d c7bc 727d fe3c
00000360: a8dc 093d aa39 91ba 4b41 273b 53af e6bc
00000370: 46fe e8bc c36e eb3d 820b 223b 3efb 1bbc
00000380: 2e05 fc3e be4e e83b ea7a dcba 9beb 87bd
00000390: f2d1 96bd 60f7 9cbd 64d0 693f 354c 8ebd
000003a0: 7f88 e53c c786 8e3f cb77 143c 160a 803c
000003b0: 3c8e 783f 0555 04bd d5ca 49bd 20df 66bb
000003c0: 97bb 68bc 63e1 c03b 6482 0a3f e124 02bd
000003d0: 9e12 843d 9c22 a13d d5bd dabc 9a49 b43b
000003e0: 3ea3 98bd b873 1d3c a900 533d 03d3 36be
000003f0: acf0 333d 80f0 ccbc 1a95 81bc ffac e03b
0.0016577351 0.066771306 -0.020392476 -0.0076076435 -0.032304235 -0.032821868 0.015178618 0.07349371
-0.08276525 -0.06466332 -0.04702989 -0.019830557 -0.07285185 0.048150625 -0.010361986 0.005641585
0.049285386 0.00077613775 -0.071069315 0.0072098086 0.026263323 0.12294422 0.0055310093 0.26252317
-0.047885675 -0.054272383 -0.03344009 -0.029886005 -0.033834707 -0.08299455 0.035190012 -0.18028674
0.025934573 -0.022866486 0.016229406 -0.0057973685 0.04462928 0.08174478 -0.13470815 0.06474773
0.0045609707 -0.121599406 -0.03099175 -0.021177514 0.0071936045 -0.0050471025 0.07035164 -0.111108646
0.007891507 0.001268159 -0.08811967 -0.008334048 0.046388686 -0.066570565 -0.0003313085 0.015508636
-0.22872709 -0.03460797 -0.03804389 -0.0039533996 -0.07606251 -0.023863116 0.0020653035 0.035271604
-0.09503885 0.037948534 -0.011163883 0.018646156 0.587749 0.08147537 -0.0014327251 0.45090514
0.110504925 -0.028129263 0.3727397 0.117118195 0.044824235 0.1831625 0.073358335 -0.032033674
0.32286954 0.03752526 -0.02812887 0.35546112 0.073144525 0.040769707 0.29887703 0.07186323
-0.04139948 0.34577632 0.028831165 -0.054511353 0.3247712 0.08582622 0.018373465 0.16247508
-0.032882053 0.07893551 -0.22821002 0.06880921 0.014405264 0.15181766 0.10561138 0.05724761
0.045310117 0.086996496 0.052281246 0.107325934 -0.015692754 -0.042802498 0.26238185 -0.046224166
0.03271145 0.055556808 -0.043899212 0.024451729 -0.053803243 0.03171666 0.074885726 0.15168256
0.032848198 0.034995563 0.41448092 -0.008188402 0.046273276 0.16592048 0.008596282 0.051581413
0.47042343 -0.040137455 0.060741536 0.65550244 -0.062011983 0.0408349 0.013866638 -0.0027168577
-0.047735237 0.03288035 0.10694482 0.031519875 0.16526201 -0.03331064 0.041750375 0.12797146
-0.03323675 -0.039665785 0.03191146 0.007858924 -0.021401908 -0.041707013 0.05097585 0.052883822
0.314169 -0.034662627 -0.011442003 0.03553807 0.10097857 -0.020672401 0.091424614 0.12808973
-0.0049313563 0.064481534 0.061146393 -0.06912708 -0.0130484905 0.0127814 0.08165789 -0.0553399
0.08360797 -0.02731964 0.34793314 0.022000352 -0.009437047 0.5728442 0.060430013 0.102730915
-0.07773971 -0.054653578 0.021192998 -0.071650796 -0.030386012 0.02039405 -0.11704844 -0.07262972
-0.04976824 0.7881862 -0.014105568 -0.06655213 1.05443 0.050411917 0.033365667 0.03936714
0.01578449 -0.0071587544 -0.026662512 0.011978799 -0.0107582575 0.07449618 0.020241912 -0.03250083
0.07959425 0.015175832 -0.18048379 0.039457873 0.12127958 -0.095435195 0.093158305 0.10078329
-0.08427499 0.07538782 0.122123554 0.02920484 0.084203005 0.12240924 -0.024336796 0.031065676
0.0336577 -0.0011079807 0.0025521095 -0.028159773 -0.02844156 0.114957355 0.0024726097 -0.00952035
0.49222702 0.007089465 -0.0016821299 -0.06636735 -0.07364263 -0.076643705 0.91333604 -0.06948129
0.028019188 1.1134881 0.009061764 0.01562981 0.9709203 -0.032307643 -0.0492657 -0.0035228208
-0.014204881 0.005886243 0.5410521 -0.03177345 0.064488634 0.07867929 -0.026701847 0.005501938
-0.07453011 0.009610109 0.0515143 -0.17853932 0.043930694 -0.025017023 -0.015818167 0.0068565602
